2023-09-29 11:10:19,651 - model.dmgan_supervisor - INFO - Log directory: experiments\PEMS04\dmgan_DR_1_h_24_128-128_lr_0.005_bs_4_0929111019/
2023-09-29 11:10:24,623 - model.dmgan_supervisor - INFO - dual_random_walk
2023-09-29 11:10:24,624 - model.dmgan_supervisor - INFO - Model created
2023-09-29 11:10:24,624 - model.dmgan_supervisor - INFO - DMGANModel(
  (encoder_model): EncoderModel(
    (dmgagru_layers): ModuleList(
      (0): DMGAGRUcell()
      (1): DMGAGRUcell()
    )
  )
  (decoder_model): DecoderModel(
    (projection_layer): Linear(in_features=128, out_features=1, bias=True)
    (dmgagru_layers): ModuleList(
      (0): DMGAGRUcell()
      (1): DMGAGRUcell()
    )
  )
  (Transformer_global): Transformer(
    (encoder): Encoder(
      (pos_emb): PositionalEncoding(
        (dropout): Dropout(p=0.0, inplace=False)
      )
      (layers): ModuleList(
        (0): EncoderLayer(
          (enc_self_attn): MultiHeadAttention(
            (W_Q): Linear(in_features=256, out_features=256, bias=False)
            (W_K): Linear(in_features=256, out_features=256, bias=False)
            (W_V): Linear(in_features=256, out_features=256, bias=False)
            (ScaledDotProductAttention): ScaledDotProductAttention(
              (dropout): Dropout(p=0, inplace=False)
              (softmax): Softmax(dim=-1)
            )
            (fc): Linear(in_features=256, out_features=256, bias=False)
            (LayerNorm): LayerNorm()
          )
          (pos_ffn): PoswiseFeedForwardNet(
            (fc): Sequential(
              (0): Linear(in_features=256, out_features=2048, bias=False)
              (1): ReLU()
              (2): Linear(in_features=2048, out_features=2048, bias=False)
              (3): ReLU()
              (4): Linear(in_features=2048, out_features=256, bias=False)
            )
            (LayerNorm): LayerNorm()
          )
        )
      )
    )
  )
  (Transformer_local): Transformer(
    (encoder): Encoder(
      (pos_emb): PositionalEncoding(
        (dropout): Dropout(p=0.0, inplace=False)
      )
      (layers): ModuleList(
        (0): EncoderLayer(
          (enc_self_attn): MultiHeadAttention(
            (W_Q): Linear(in_features=256, out_features=256, bias=False)
            (W_K): Linear(in_features=256, out_features=256, bias=False)
            (W_V): Linear(in_features=256, out_features=256, bias=False)
            (ScaledDotProductAttention): ScaledDotProductAttention(
              (dropout): Dropout(p=0, inplace=False)
              (softmax): Softmax(dim=-1)
            )
            (fc): Linear(in_features=256, out_features=256, bias=False)
            (LayerNorm): LayerNorm()
          )
          (pos_ffn): PoswiseFeedForwardNet(
            (fc): Sequential(
              (0): Linear(in_features=256, out_features=2048, bias=False)
              (1): ReLU()
              (2): Linear(in_features=2048, out_features=2048, bias=False)
              (3): ReLU()
              (4): Linear(in_features=2048, out_features=256, bias=False)
            )
            (LayerNorm): LayerNorm()
          )
        )
      )
    )
  )
  (Trans_linear_global): Linear(in_features=24, out_features=1, bias=False)
  (Trans_linear_local): Linear(in_features=3, out_features=1, bias=False)
  (embedding_layer_1): Linear(in_features=1, out_features=32, bias=False)
  (embedding_layer_2): Linear(in_features=1, out_features=32, bias=False)
)
2023-09-29 11:10:24,625 - model.dmgan_supervisor - INFO - Start training ...
2023-09-29 11:10:24,625 - model.dmgan_supervisor - INFO - num_batches:2542
2023-09-29 11:10:24,625 - model.dmgan_supervisor - INFO - batches_seen:0
2023-09-29 11:10:27,698 - model.dmgan_supervisor - INFO - Total trainable parameters 13190150
2023-09-29 12:16:45,949 - model.dmgan_supervisor - INFO - epoch complete
…
